model/chatbot_model.pth (torch, 19332 bytes, 6 tensors)

l1.weight f4 [8, 350]
00000000: 8a37 973c 90c5 93bc f459 46bc e531 503d
00000010: d6c6 223f 801c e939 f02f 2a3f 648c 223c
00000020: b30c 273f e586 1d3d dd4c 4e3e 5e36 513c
00000030: b135 133e 90c9 cd3e 5685 9d3e 78c9 45bc
00000040: cec2 ed3d 36e2 b03c d860 2bbd 75ae 3c3d
00000050: 0eae cb3c 573a 843e b9d8 a13e f700 503d
00000060: e381 29bd 70fe 07bd 685e c6bb 9f36 b43f
00000070: 98c9 90bc 168d b33c 385e 843b 3caa a63e
00000080: 2746 cbbe f9b3 0b3e fc82 223d 3d89 51bc
00000090: 59a4 883d 20a6 843e 3c79 0e3e 11ec 043d
000000a0: 853a 16bd 98f2 fb3b 3652 453e dac5 15bd
000000b0: c8a0 b3be ec07 b73e f059 1d3c 8f18 9c3d
000000c0: 5244 91bc 7ab3 943e fd0a 873e 409d bdbc
000000d0: f962 d9be e4fa 0dbe 592b e4bc e5a0 56bd
000000e0: e06d 0abd 306c a2be ae81 c8be 0d6e b8bc
000000f0: 80dd 84b9 42fb a4bc 7f4c 6e3c 3a90 9dbb
00000100: b23d 993d 9eb3 b9bd 856f abbe a4e7 96bd
00000110: 1ca7 10bc 29c0 c63c 984a d03c ace5 a33c
00000120: cd13 32bd dbb8 d2bd 190d b8be 44fe 7c3c
00000130: 9900 1b3e 124c 86bc fa7a 0fbf f07d d2be
00000140: 076c 56bd 742d d1bc 497a 0d3d 2f2b b93e
00000150: 50eb 843e 8478 ef3a 13c1 bfbe 4570 f33c
00000160: a17b 89bc 1133 a43d f1ea 86bd c267 16bf
00000170: 3b62 4bbe 679b 183d d235 0fbf e690 78be
00000180: 93f2 573e 9ecf 0cbe eaa7 1dbd 605f 993e
00000190: ca54 a33e 7cd0 293d ac48 0cbf a9ac cdbe
000001a0: c964 583d 4aee 9d3e f065 f3bb 75e4 c3bd
000001b0: 6a56 943d 3b6e a63e 866c c13c deb3 d13c
000001c0: 1cc0 1f3f af21 503d fdc0 4b3e b05d e73c
000001d0: 7f21 4e3e 66df 1e3f fe40 a33e 7fd3 dd3c
000001e0: e781 02bd 5a71 7d3e ebe3 153d 5d6c cebc
000001f0: 2770 293f 0ba3 453d 025d 1f3e c6a9 9a3e
00000200: d9d8 81bc f425 db3e 30aa 193f 6e8e 17bd
00000210: 51f2 5ebe 8094 9bbb f3cb 99be 2c99 60bc
00000220: 1c83 3d3e 4924 f6bc d9e0 0ebf f25d a6be
00000230: 27f1 3c3c 6785 6e3d 54e5 683e 1348 f9bc
00000240: b8d0 08bf fb0e 133e cb04 493d 457c 6d3e
00000250: 2ede 403d 4ec8 adbe d75f 89be f97f 073e
00000260: c482 973e 713b 713d ad2e 93be 2800 f6be
00000270: 6953 76be ac2f 2abd 3747 14bd 4aa0 bc3c
00000280: 81c7 bdbe 96d0 97be cc74 88bc edef 66be
00000290: e2b3 89be bbf5 acbe eaef babc ee5e f03c
000002a0: edc3 d1be 68c1 5a3d 99b6 753e 6783 c8be
000002b0: 4ca1 183c f73b c9bd 8025 bbba 6239 a4be
000002c0: 7b65 a6be 1c4b b7be 7388 e4bc 155f a8bd
000002d0: 4d64 153d 436e d5be 41e4 b1be 579f 943e
000002e0: 1ea7 23bd 31b3 abbe f013 babb 10b5 6cbd
000002f0: fb2e 303e 4eb2 533d 8629 b2be f2d4 47bd
00000300: fcc4 013e c3cc 033d 11b1 b7be b135 113e
00000310: 0111 ebbc fac4 a7be 1280 25bd f298 1ebf
00000320: 9aa9 24bf d21b b83e 5824 8a3b 5792 2abe
00000330: 850c 233d 126d 1fbf 566f 273e 23bd b6bd
00000340: 7101 223d 68f6 683d a326 edbe 6daf 643e
00000350: 9cb9 da3c eebe 0ebe 9854 eebe 1d51 123d
00000360: 6536 ef3d b9bd 21bb 62ad e73c b8b4 b1be
00000370: 85db ab3d 95b4 bcbe 3d1a b0be b288 a03d
00000380: d68e e43c 21bd 183e 93f6 5f3e 3cbf 80be
00000390: 1660 9dbc 385d 893e a253 0a3e 5a69 533e
000003a0: 04de f63e 5380 233e 6215 263e 9d68 8ebd
000003b0: e560 df3d 634e b73e 5e35 b0bd a099 c03b
000003c0: 8097 9b3d 52b9 91be 429b c1be fd88 813c
000003d0: f62e 51bd 323a a73c bcdb 38bd 2b1e a83e
000003e0: 38c5 72bc caf9 a03d 8490 623d 76fd b73d
000003f0: 2a35 d53e 1312 f83e 3aa9 0bbb a277 a33c
0.0184591 -0.018038541 -0.012106407 0.050828833 0.6358465 0.00044462457 0.66479397 0.009921167
0.6525375 0.038458724 0.20146509 0.01276931 0.1437595 0.40192842 0.3076579 -0.01207196
0.11609422 0.02159224 -0.041840404 0.046064813 0.02486327 0.2582576 0.3161066 0.05078217
-0.041383635 -0.033201635 -0.0060537346 1.4079169 -0.017674252 0.021917861 0.004039552 0.32551754
-0.3970196 0.13642873 0.039675698 -0.012789068 0.06671972 0.25907993 0.13913435 0.032451693
-0.036676902 0.0076888315 0.19269642 -0.03656564 -0.35083604 0.3574823 0.009603962 0.07621872
-0.017732773 0.2904318 0.2637557 -0.023146272 -0.42458323 -0.13865238 -0.027852701 -0.052399535
-0.03379619 -0.31723166 -0.39161438 -0.022513414 -0.00025342032 -0.02013934 0.014544605 -0.004808453
0.074824706 -0.090674624 -0.3348352 -0.07368401 -0.0088289045 0.024261551 0.025426194 0.020006977
-0.043475915 -0.10289165 -0.35947493 0.015441481 0.15136947 -0.016393695 -0.5604702 -0.41111708
-0.052349117 -0.025534369 0.03454045 0.3616576 0.2596078 0.0018270169 -0.3745199 0.02971662
-0.016782584 0.08017553 -0.0658778 -0.5875207 -0.1986169 0.03725758 -0.559415 -0.24274024
0.21088628 -0.13751075 -0.038490213 0.29955578 0.31900626 0.04145859 -0.5479839 -0.40170792
0.05283049 0.30845863 -0.0074279234 -0.09565059 0.07243045 0.32505974 0.023611318 0.025598463
0.6240251 0.050813373 0.19897838 0.028242916 0.20129965 0.6205963 0.31885523 0.027078388
-0.031862166 0.24750271 0.036594313 -0.025198156 0.66186756 0.048251193 0.15562823 0.30207652
-0.015850471 0.42802393 0.6002531 -0.037001066 -0.21772124 -0.004747927 -0.30038413 -0.013708394
0.18507046 -0.030046599 -0.5581184 -0.3249355 0.011532105 0.05823269 0.22743732 -0.030429875
-0.5344348 0.14361183 0.049076837 0.23191936 0.047086887 -0.33941883 -0.26830932 0.13232411
0.29591954 0.05889458 -0.28746548 -0.48046994 -0.24055256 -0.04154937 -0.03620073 0.02302565
-0.37066272 -0.29651326 -0.016657256 -0.22552462 -0.26895052 -0.33781227 -0.022819478 0.029342141
-0.40969792 0.053407103 0.23995437 -0.39162752 0.0093158 -0.098258905 -0.0014278144 -0.3207503
-0.32499298 -0.3579949 -0.027897095 -0.082212605 0.036472607 -0.41685686 -0.34744456 0.29027817
-0.039954297 -0.3353515 -0.0056786463 -0.057789862 0.17205422 0.051683716 -0.34797305 -0.048787065
0.126728 0.032177698 -0.35877278 0.14180638 -0.028694632 -0.3276747 -0.04040534 -0.61952126
-0.6432129 0.35958725 0.0042157583 -0.16657387 0.03980686 -0.62275803 0.16351065 -0.08922794
0.039552156 0.056875616 -0.4631854 0.22332545 0.026699834 -0.13940021 -0.46548915 0.035721887
0.11680297 -0.0024679734 0.028280918 -0.3470819 0.083914794 -0.36856523 -0.34395018 0.078385726
0.02790014 0.14915897 0.21871404 -0.251459 -0.019210856 0.26828933 0.13508466 0.20645657
0.4821626 0.1596692 0.16219094 -0.06953547 0.10907153 0.35801992 -0.08603929 0.0058776885
0.07597256 -0.284617 -0.37813765 0.015812391 -0.051070176 0.020413492 -0.04513143 0.32835516
-0.014817528 0.078601435 0.055313602 0.08983891 0.41642123 0.4845129 -0.0021310584 0.019954506

l1.bias f4 [8]
00000000: afa4 ac3f 2096 1a3e b4e9 8b3f 46a3 143d
00000010: 97f4 5d3f 8d62 1e3a 0ac2 1e3f 7269 f63e
1.3487757 0.1509633 1.0930696 0.036288522 0.8670134 0.0006041907 0.6201483 0.48127323

l2.weight f4 [8, 8]
00000000: 02ce e43e d062 02bf 01d8 093f 3385 32bd
00000010: d95b 373f 9c02 53bf c9b0 1fbf f822 2b3f
00000020: b6f8 88be c0b6 26bf bcde df3e 08f1 0a3f
00000030: 1d86 ea3e 6d82 6dbe b385 67bf 4b06 243f
00000040: ed45 f6be 9c41 fb3d f3f4 ed3e 6da8 583f
00000050: e7a6 b73f d648 783f 825d b73f e9aa 02bf
00000060: 345e 9f3f 489e c93e bce4 3c3e f010 633f
00000070: caf0 7ebf e8aa b53e fc91 3b3f 26d2 313e
00000080: 5cb3 8a3f 0648 78be 0315 203f 1c4a 00bf
00000090: 217e 5e3f 02c4 6dbf a403 89be 72b5 b93e
000000a0: 28e4 8fbe b489 17bf d1f6 743f 911d 203f
000000b0: b34f bbbd 205b 663f 692a 4dbf edfc 333f
000000c0: 0de2 913f 392d 463f 7943 bd3e b032 82bf
000000d0: 3c0c ccbd bbcb 1bbf 2968 a33e 69cc 0f3e
000000e0: 19e2 03be 656d 733f eeda 193f 73c5 0c3f
000000f0: e69c 3fbf f0a5 86be f089 68be b3e7 293f
0.4468842 -0.50932026 0.5384522 -0.04358406 0.71624523 -0.82425857 -0.6237913 0.66850233
-0.2675225 -0.65122604 0.4372462 0.54274035 0.45805445 -0.23194285 -0.90438384 0.640721
-0.48100224 0.12268373 0.46475944 0.84632 1.434781 0.9698614 1.4325411 -0.5104204
1.2450624 0.39378572 0.1844663 0.8869772 -0.99586165 0.35481954 0.7326963 0.17365322
1.0835986 -0.24246225 0.6253206 -0.5011308 0.8691121 -0.9287721 -0.2676059 0.36271244
-0.28103757 -0.59194493 0.9568911 0.62545115 -0.09146061 0.89982796 -0.8014284 0.7030781
1.139711 0.77412754 0.3696554 -1.0171719 -0.09963271 -0.60857743 0.31915405 0.1404282
-0.12879218 0.950888 0.60099685 0.54988784 -0.74848783 -0.26298475 -0.22708869 0.6636917

l2.bias f4 [8]
00000000: 7027 653f de01 84bb 934b 8f3f 1f21 9d3e
00000010: 03a6 5e3f 6e13 b8be ba92 463e 90ee f9bd
0.895133 -0.004028543 1.1194938 0.30689332 0.86972064 -0.35952324 0.19391909 -0.12203705

l3.weight f4 [13, 8]
00000000: fb63 6ebd 6b27 0ec0 654c a9be a243 cb3e
00000010: 0b37 7d3d 9ae1 a13c 3f89 f83c ffb1 a53e
00000020: 9e22 ccbe 3631 c8be f5f3 b6bf fcd8 b03d
00000030: b9f3 8d3e b13f 6cbe 0187 383f e6b5 ea3e
00000040: 0f6b 6cbf 291a babf 2338 273f 9233 b93e
00000050: 1596 55bc 829b 9fbe 010d 32bf 260a b5bf
00000060: 839c 453e bd93 a13e 3f4b 863f df37 e9bf
00000070: ae21 673e 575d d7bf 8dc3 07c0 11ec 19bf
00000080: d908 15be 59c4 273e c7eb b2be aded 96be
00000090: e547 adbf ae30 243f 8341 c3be 49d7 203f
000000a0: dff9 babf 59e1 ecbe dada a83e 909a e0bd
000000b0: 586d afbf 5138 253f 9e89 5dbf 8442 ecbd
000000c0: 72d4 cabf 8c61 06bf 659e 5e3e cec9 5fbe
000000d0: cc32 20bf bc30 b5bf 4a00 6b3f f25a 033f
000000e0: e36a ab3e ba91 b53e c766 6fbf f334 d23e
000000f0: e031 9cbe 7b6e 7d3e 50e5 80be c452 2f3d
00000100: 9fcf 253f 79e5 a6bf df6b 57bc d219 57bd
00000110: 0c34 413f 54fb 3bbf 09cd 443e 5186 0ebf
00000120: a71c 0b3f cd21 d73e c5f1 98bf 7472 36bf
00000130: a430 b03e 71ab 783e 9341 b23e f02f ccbe
00000140: 4c02 2a3f 9c45 1e3f 8f9f d4be d71d 4abf
00000150: 300c 953e a31a 7a3e 814b fcbf b836 f73e
00000160: 9405 413e 5915 2f3f ac17 c83e a994 91bf
00000170: a6ea a3be 824c c23e 8f5f a0bf 87c5 3fbf
00000180: 3c8b c0bf 6659 07bf e0ae 6b3e 6e55 413f
00000190: 3db4 c9bf bec8 81bf 685d a5bf 4251 233f
-0.058200818 -2.221156 -0.33066097 0.39700037 0.06182007 0.019760896 0.030338882 0.32362363
-0.3987016 -0.39100045 -1.42932 0.086351365 0.27725008 -0.23071171 0.72081 0.45841902
-0.9235086 -1.4539233 0.6532003 0.36172158 -0.013036271 -0.3117333 -0.6955109 -1.4143722
0.19297986 0.31558028 1.0491713 -1.8220176 0.22571442 -1.682536 -2.1213105 -0.60125834
-0.14554156 0.16383494 -0.3494551 -0.29478207 -1.3537565 0.6413678 -0.3813592 0.628285
-1.4607505 -0.46265677 0.3297947 -0.109669805 -1.3705244 0.64539057 -0.8653811 -0.11536124
-1.5846083 -0.52492595 0.2174011 -0.21854326 -0.6257751 -1.4155498 0.91797316 0.51310647
0.33479986 0.35462743 -0.935162 0.41056022 -0.30506802 0.24749176 -0.25174952 0.04280354
0.6476993 -1.303878 -0.013148277 -0.05251486 0.7547004 -0.7343037 0.1921884 -0.556737
0.54340595 0.42017975 -1.1948782 -0.7126839 0.3441211 0.2428415 0.34815654 -0.39880323
0.66409755 0.61824965 -0.41527984 -0.7895178 0.2911086 0.24424224 -1.9710542 0.48283935
0.18849784 0.6839195 0.3908056 -1.1373492 -0.3201496 0.37948996 -1.2529162 -0.7491078
-1.5042491 -0.52870786 0.23015928 0.7552098 -1.5758129 -1.0139387 -1.291913 0.63795865

l3.bias f4 [13]
00000000: 2d6d 013c d376 45bf 4452 07bf 6815 1c3f
00000010: a93a 06bf 6204 66bd dcb0 a83d d04e b63d
00000020: 035b 093f 89d2 53bf cb4d 4ebe a6a2 963c
00000030: 774d 893e
0.007899565 -0.77134436 -0.528599 0.60970163 -0.5243326 -0.056156524 0.08236858 0.08901751
0.536545 -0.82743126 -0.20146863 0.018388104 0.26816913
